model.ckpt (torch_old, 119116 bytes, 14 tensors)

layer1.0.weight f4 [16, 1, 5, 5]
00000000: 167e 993c ada3 b23d cf33 2fbd 1110 703c
00000010: 35f6 73bd 85ff 15be 214e 07be e9e6 d7bd
00000020: 426a f1bd a16b 8d3d 1a60 493d 40c5 0ebe
00000030: f8b4 58be 3d97 ff3d b775 dc3d 833e 00be
00000040: f725 a3bd d7e5 6e3e c494 b33e 91cb 3f3d
00000050: 1d09 a03d 67f1 b43d 86ae 243e 880b 87be
00000060: bdba 93be 9d29 613d 03c7 fa3d 3cab f83c
00000070: 95d4 0dbe 54f7 063d 6904 2dbd 9344 d7bc
00000080: 6bdc 34bc 155c 2b3e 6847 7dbe 13d0 053e
00000090: 533a f03d a150 e3bc d57f 723e 6cac 66be
000000a0: 2124 bcbe c08a 03be 3a3d 06bd b43f 503e
000000b0: 896d f53d b042 97be 0a5d b33d f79e 41be
000000c0: e185 d43c 6ea8 883e 0781 02be 7711 8b3d
000000d0: adbe 56be 2258 a3bb 5802 56be 2aaa 823d
000000e0: ab15 d93d fe3e 153d 3f3f a13c bdb1 cbbe
000000f0: f033 5b3e 7e6f 153e 7b2c 50be a002 3ebe
00000100: 7583 8a3b d7b9 963e f430 86bd bed9 4dbe
00000110: 6043 183d d4d9 06be d52a 303e 3ffc 433e
00000120: 4f17 323e 0bf7 183e e0c9 793c 7a98 d13c
00000130: 4157 7ebb 3f8a a1bb eddf 05be 0414 383e
00000140: d997 40bb 72bb 843d 1b05 1e3d 8762 b9be
00000150: 8553 263e 4561 35be cc8d 5f3e 9336 85bc
00000160: e39e 61be a928 183e 6c01 bbbd 0a09 893e
00000170: b6e5 05be d842 2ebe e201 f0bd 8080 a23d
00000180: eb58 0c3e 1453 1cbe 7fb6 b8bd 42c7 383e
00000190: 44e0 c73d f5a9 363e 0876 163c d937 683b
000001a0: 1b70 01be f19e 013e 3e9e 58be 33e7 95be
000001b0: 99e3 e2bd 1569 6abd 487a 203e bbae d63d
000001c0: 145c 4c3e 3ffc ab3e a1a0 543e f078 b73d
000001d0: a88d ce3d 21b8 75bd 2a9b aa3d 0cab 6d3e
000001e0: eac3 e5bd 39d6 96bd 93f0 07bd 0626 7abe
000001f0: 8b09 91bc ff54 1cbe 955d 45bd c83e c1bc
00000200: a34e f13d 1ba6 a43d 776d 423e 314b f63d
00000210: 8bbe f5bd 4119 89bd ef47 403e a64a 94bd
00000220: 7c29 0a3e 4aba 4f3e da95 cfbd 23c5 80be
00000230: ac74 e73d 9d2e 56be 7233 823e d6fc db3c
00000240: dd55 bebe 77b9 673d 117c 1ebe 4b38 a3bc
00000250: 0971 6b3e 8f5e 59bd 6f11 15bc 38d4 d23c
00000260: 09d8 373d c305 3e3e 232d 853e a248 0bbe
00000270: 96ce ed3d 2eaf 223e 7e19 e63c 1403 3c3b
00000280: a70b 1f3d 957e b0bd 4094 033e 53a6 263e
00000290: 34a0 e13d 8270 63be 2371 a33d 047c b8bc
000002a0: 0e3f 06be 08c8 5abe 89c7 94be b437 a9be
000002b0: fa05 e13d 3307 683e 6dd5 f4bd 9c69 3ebe
000002c0: 7420 1fbe ddab 7abd 1c14 c5bd 223d 8b3e
000002d0: eadd 36be 8e6d 5c3d b199 5dbe 81f0 2d3e
000002e0: d143 733e 680f 09be 657c 4cbe 0db2 26be
000002f0: 9560 0e3e 83bd 753e a399 76be ed43 9ebb
00000300: 3002 4abe 1884 f23c 29dc 5d3e a0ee 29bd
00000310: 0c44 0cbe 517e f7bd ca0c b63d e16a e13d
00000320: b3dc d9bd 6a4c 9a3d 8a7d 8dbe ab06 05be
00000330: f907 b93d e05f 08be 8913 60bd 5601 b3bd
00000340: 37cc 093e c8ca 8c3c 61ce 24bd f1a0 ddbd
00000350: d229 53be bf70 ea3d 8a2c 253e 35b5 8bbd
00000360: 0181 30bd 3135 0ebe b3c4 15be a8ab 7c3e
00000370: f0d4 573e d01c 44be 1fe4 7ebd d719 a7be
00000380: 05d3 73bc 6ba2 073d 9110 1cbe 4b5f 363c
00000390: 4612 6cbd 83b3 9ebd 2a45 923e 87e7 bd3d
000003a0: 5132 6e3e 2afd 293e efd0 913d 37b5 8f3d
000003b0: 0045 19be c100 293e 4b4c 123e d022 3e3d
000003c0: 64ce 44be 078f 363c b4d6 b8bd 1358 9dbd
000003d0: 652c 963d 0ae9 07be 5138 0abe 8c1f bdbe
000003e0: ca45 2ebd 3db1 6bbe 3738 993d bede 79be
000003f0: 99a7 3f3c 8e1c 4a3e e014 1bbe 38c6 4dbe
0.01873688 0.08722625 -0.042774018 0.014652268 -0.059560973 -0.14648254 -0.13213398 -0.105420895
-0.11787845 0.06905294 0.049163915 -0.13942432 -0.21162784 0.12480018 0.1076464 -0.12523846
-0.079662256 0.23329864 0.35074437 0.046824995 0.07814238 0.08835106 0.160822 -0.26375985
-0.28853408 0.054971326 0.1224499 0.030355088 -0.13850625 0.032950714 -0.042240534 -0.026277816
-0.01103888 0.16734345 -0.2473427 0.13067655 0.117298745 -0.027748408 0.23681577 -0.22526711
-0.36746314 -0.12845898 -0.032773234 0.20336801 0.11983783 -0.29543066 0.0875798 -0.18908297
0.025942745 0.26691002 -0.12744533 0.067904405 -0.20971175 -0.0049848715 -0.20899332 0.063801125
0.10599836 0.036437027 0.019683478 -0.3978404 0.21406531 0.14593312 -0.20329468 -0.18555689
0.0042270967 0.2943866 -0.06552306 -0.20102593 0.03717363 -0.13169032 0.17203839 0.19139193
0.17391704 0.1493799 0.015245885 0.025585402 -0.0038809332 -0.0049298103 -0.13073702 0.17976385
-0.0029387383 0.06481065 0.038579088 -0.36207983 0.16242798 -0.17712887 0.21831435 -0.016261375
-0.22033267 0.1485926 -0.091311306 0.2676471 -0.13075909 -0.17017686 -0.11719109 0.07934666
0.13705795 -0.15266067 -0.09019183 0.18044761 0.09759572 0.17838271 0.009183414 0.0035433678
-0.12640421 0.12658288 -0.21154115 -0.29277954 -0.11078567 -0.05722912 0.15671647 0.10482546
0.19957 0.33590886 0.207644 0.08958614 0.100856125 -0.059990052 0.083303764 0.2320978
-0.11219008 -0.073650785 -0.033188414 -0.24428567 -0.017704746 -0.15266798 -0.04818495 -0.023589507
0.11782577 0.080394946 0.1898707 0.120260604 -0.11999234 -0.0669427 0.1877744 -0.072408006
0.13492388 0.20285907 -0.10136004 -0.25150403 0.1130155 -0.20916219 0.25429875 0.02685396
-0.37174883 0.056573357 -0.15477015 -0.019924304 0.22992338 -0.053068694 -0.009098395 0.02573596
0.04488376 0.18556885 0.26011 -0.13601926 0.11611669 0.15887138 0.028088327 0.0028688358
0.038829472 -0.086178936 0.12849522 0.16274385 0.110168844 -0.22210887 0.079805635 -0.022520073
-0.13109991 -0.21365368 -0.29058483 -0.3305031 0.10987468 0.22658996 -0.1195477 -0.18594974
-0.15539724 -0.061199058 -0.09622976 0.27195078 -0.17858091 0.053815417 -0.2164066 0.16986276
0.23756339 -0.13384783 -0.19969328 -0.16278858 0.1390403 0.23998074 -0.24082045 -0.0048298747
-0.19727397 0.029604003 0.21666016 -0.041487336 -0.13697833 -0.1208464 0.08889158 0.11006714
-0.10637798 0.07534106 -0.2763484 -0.12990825 0.09034724 -0.13317823 -0.05470613 -0.08740489
0.13456808 0.017186537 -0.04023588 -0.10821713 -0.20621422 0.11447286 0.16130272 -0.06821672
-0.043091778 -0.13887478 -0.14625816 0.24674857 0.21077323 -0.19151616 -0.062229272 -0.32636902
-0.014881854 0.03311388 -0.15240695 0.011131118 -0.057634614 -0.07749083 0.28568393 0.09272676
0.23261382 0.1660048 0.07119929 0.07016986 -0.14967728 0.16504194 0.14286916 0.04641992
-0.19219357 0.011142499 -0.09025326 -0.076828144 0.07332686 -0.13272491 -0.13498046 -0.3693813
-0.042547025 -0.2301683 0.07481425 -0.24401376 0.011697673 0.19737455 -0.15144682 -0.20095146

layer1.0.bias f4 [16]
00000000: 7336 e73c 2367 103e 6a58 003c 5d7b 4e3e
00000010: 5a89 39be cfcc 8abe f446 d13d 2146 283e
00000020: 7ed5 d23d 835a c1bd 8946 773d d98d 62be
00000030: e47d 963d eede 2abe 16f1 d93d 4b2b 94bd
0.028224206 0.14101844 0.00783358 0.20164247 -0.18118802 -0.27109382 0.10218611 0.16433002
0.10294627 -0.09441092 0.060370002 -0.22124423 0.073482305 -0.16686603 0.106416866 -0.0723482

layer1.1.weight f4 [16]
00000000: b315 383f ee1c 103f 50b7 093f d1c4 e63e
00000010: 1b7e 773e fb7b da3e 2d25 ae3e e732 943e
00000020: 35be 1a3f f017 7f3e 2123 3c3f c0c7 683f
00000030: f2a2 223f 5895 843f 2e88 313f e402 ec3e
0.7190811 0.56294143 0.5379534 0.45072034 0.24169199 0.42672715 0.34012738 0.28945085
0.6044648 0.24911475 0.734911 0.90929794 0.63529885 1.0358076 0.6934842 0.46095955

layer1.1.bias f4 [16]
00000000: 63c4 c5be d90a 07bf f3e1 aabe 09dc 6fbe
00000010: afa6 aabe a51b b6be f25d aebe a34c 29be
00000020: 5c58 18be c678 303c 9767 66be beae 83be
00000030: e9ec 82be 07ac 1dbe 2fdd c3bd b408 01bd
-0.38626394 -0.5275093 -0.3337551 -0.2342378 -0.33330294 -0.35567966 -0.3405605 -0.16533141
-0.14877456 0.010770982 -0.22500454 -0.25719255 -0.25571373 -0.15397654 -0.09563672 -0.03150244

layer1.1.running_mean f4 [16]
00000000: 271e d7bb 4efc f83d ce77 6e3b e1e4 313e
00000010: a52b d3bd 77a9 85be 8deb eb3d 0b2a b13d
00000020: 06e6 20bd 343a 0abe 250c 47bd edb3 b2be
00000030: 8aad b6bd bc53 a1be 26fe 28bc 4868 0abe
-0.0065648737 0.12157498 0.0036387327 0.17372467 -0.10311059 -0.26105854 0.11519537 0.08650597
-0.039281867 -0.13498765 -0.048595566 -0.34902897 -0.08919819 -0.31509197 -0.0103145 -0.13516343

layer1.1.running_var f4 [16]
00000000: 59de 043d 3d44 173d b031 be3d f290 c33c
00000010: 34ed 2b3d 9db3 ab3c 892c 8d3d 31b3 2a3e
00000020: ab42 b93d 665f 7e3d 5de8 733d d914 9d3d
00000030: 2907 393e 3205 1d3e 29cb a53d 5356 2a3d
0.03243861 0.03693031 0.09286821 0.023872826 0.04197426 0.02095967 0.0689326 0.16669919
0.09045919 0.062102698 0.05954777 0.07669992 0.18069138 0.15334013 0.0809539 0.04158623

layer2.0.weight f4 [32, 16, 5, 5]
00000000: 21be 9ebb 6234 46bd 7325 21be 7deb 82bd
00000010: 3bfe a4bc 1c64 393c 9e8b f1bd 9b8e 7b3c
00000020: 857a fb3c 6970 80bd 6d6e 203d 795a 263d
00000030: 450b cebd 09f9 70bd b8ae 0ebd fd3a 483d
00000040: 35f5 b53d 699c 403d b36c b7bd c641 05be
00000050: ddfb ad3c e49e 153c 6f3f babc ccf6 7cbd
00000060: 1e5a 98bd f518 81bc 8cc1 213d b534 b63d
00000070: b91c ef3d 386a 0cbd 632d 2b3d 01c3 c1bd
00000080: 0042 9b3d e5a9 98bd 1ebe ecbd 779b ac3d
00000090: 7d82 2abd 1149 85bd 1ba6 eabd 9334 bbbb
000000a0: 1aa6 bb3d 7104 b33d 627c eb3c 66a7 99bc
000000b0: a51a d03b 6b66 8c3b 841e 6a3c e233 a9bc
000000c0: 83b0 e2bd b755 85bd c7bb 043d a647 b6bd
000000d0: f8a9 dfbd 1907 283d 42e6 343c 6f83 04be
000000e0: 9d32 c0bd ce65 bc3d 7c76 de3d 5338 bb3c
000000f0: 8260 41be ab4f 60bd 1591 273d b195 d8bd
00000100: 14a7 5abe e2fe e7bd d788 bcbc 7f8b 493d
00000110: e3b9 95bd 8cc0 b7bd b0fe 95bd 732f 113d
00000120: d98f 803d bc06 7f3d ff21 2fbc 191c fe3c
00000130: e580 0ebe 38b0 febd f976 253c a099 04be
00000140: fac7 0b3c 5741 18be 288c 953d 2044 363d
00000150: d86d b7bd 55cc bebd e376 60bc 14fc 16bd
00000160: c43d cfbd 6dbd fabd 3937 833d b402 1abd
00000170: d99d 1bbd b394 d8bd bd63 b1bd 81d8 85be
00000180: 520d 69be d05f 0f3e 197a b8bc 7546 87bc
00000190: d610 063e 51b2 9a3c aff2 0e3d a1d1 bf3c
000001a0: c77b 2fbc 7a96 193d dc28 233d 7689 223d
000001b0: b1a5 353c b726 56bd 0004 fbbd b56f 463d
000001c0: 05ac 0b3c 335f f13c cc27 a1bd 7f54 a3bb
000001d0: d9e5 b33b 53c8 d23b 9410 3bbd dfb0 ccbd
000001e0: 53bf 20be bb25 babd 7c39 a5ba 969f 053d
000001f0: 16bf 13bd 8fff 4ebd 76d1 79bd f107 493d
00000200: f994 86bc 6ff7 41bb 7472 94bc 5dc9 0cbd
00000210: afa4 22be e26e 7ebd b2d0 d13d 8e4f b7bd
00000220: 2990 90be 7bde 3cbd 55ae 0abd b34b 35bd
00000230: a63d f2bd ae20 41bd 011c f2bc a56f 2dbe
00000240: e71e 43bd 10df 94bd ed8c 283e ca41 cebc
00000250: 4e68 b03c baa9 f23c d9a9 d53d 6d71 ef3d
00000260: 5325 193d d4f9 a1bb dc1d 8bbb 5b45 cf3d
00000270: 80f1 903d fd76 843d 02f7 f43d 74cb 033e
00000280: 3ebf b3bc 8543 95bd c36e 893d 97b7 393d
00000290: c31d 22be aa53 6b3d c84a 34bb 21b5 c2bb
000002a0: 5269 cdbd 599f 02be 44fe 0a3e ad41 133e
000002b0: 4757 ce3c 656a 57bc a392 10bc a3be a63d
000002c0: 5b20 d3bb 6660 ab3d 2dfb 593d c37c a33d
000002d0: 1bde 8dbc 3067 d3bd f25c 023e e3a4 b43d
000002e0: 1f29 7a3c ce00 d8bc 9707 e2bd 662a 913d
000002f0: 2c63 1bbe 73e9 fcbd 67f2 5d3e 0aef 2b3d
00000300: 1878 5a3c a0a8 e8bc dec7 0ebb f8c1 6d3e
00000310: ce28 4d3e b38f 263e 320d 093b 9265 f03b
00000320: 6a24 54bd 7718 3dbe 8752 1abd ce40 833d
00000330: fb47 da3d b78c 05bd 0364 74bb 9bd0 563e
00000340: 5bf7 283e 51a7 c73d 69db 1e3d bf97 543e
00000350: d45c 1d3e 34d0 7cbe e488 4abd adc5 6f3e
00000360: 573d 583e a1c1 e13d 2a3f a13a 605b 193e
00000370: 8d93 943e a0a0 843e 1841 023e b11a 973e
00000380: 257c d43d 356c 1dbb 6c9e 313d 6a20 023e
00000390: b3bb b83d 500d 5b3e 0c6f 1e3e 2629 ad3d
000003a0: e84f 033e a0e4 e63d 3b57 b0bb 3b74 6ebe
000003b0: 920d 31bd af1f 873d ee07 613d b7fc dbbd
000003c0: af30 17be 9236 45bd d31e 333c 4b1f 90bd
000003d0: ad57 3f3d ddfc 1e3e f528 033c 8076 39be
000003e0: 8580 dbbd 2eb6 d23d ec5a 833d 1793 62bd
000003f0: 38f2 03bc 8391 babb 153a 263e 2b61 dcbc
-0.0048444425 -0.0483898 -0.15736942 -0.06392572 -0.020140758 0.011315372 -0.11794208 0.015353824
0.03069807 -0.062714405 0.03916781 0.040613625 -0.10060743 -0.05883125 -0.034834594 0.04888438
0.0888466 0.047024164 -0.089562796 -0.13013372 0.021238262 0.009132121 -0.022735326 -0.0617588
-0.074390635 -0.01575897 0.03949122 0.08896772 0.116754 -0.034280986 0.04179133 -0.09461022
0.07580948 -0.0745428 -0.115596995 0.0842809 -0.04162835 -0.06508077 -0.11457463 -0.0057130544
0.09162541 0.087410815 0.028745834 -0.01875658 0.0063508325 0.00428467 0.014289502 -0.020654622
-0.11068823 -0.065104894 0.03240564 -0.089003846 -0.10921091 0.041022394 0.011041226 -0.12940763
-0.09384654 0.09199105 0.10862443 0.022854006 -0.18884471 -0.054763477 0.040909845 -0.10575426
-0.21352798 -0.11327912 -0.02301447 0.0492053 -0.07310846 -0.08972272 -0.073239684 0.03544564
0.06277437 0.06226228 -0.010689258 0.031019257 -0.13916357 -0.12435955 0.010099166 -0.12949228
0.008531565 -0.14868675 0.07302123 0.044498563 -0.08956498 -0.09316317 -0.01370022 -0.036861494
-0.10119203 -0.12243161 0.06407017 -0.037600234 -0.037992332 -0.10575237 -0.08661602 -0.26141742
-0.22758988 0.14001393 -0.022519158 -0.016513089 0.1309236 0.018883856 0.03489941 0.023415389
-0.010710663 0.03749702 0.03983389 0.039681874 0.011086867 -0.052283015 -0.12256622 0.048446376
0.008524899 0.02946434 -0.07868919 -0.004984438 0.0054900465 0.006432572 -0.045670107 -0.09994673
-0.15697984 -0.09089228 -0.0012605633 0.032622896 -0.036070906 -0.05053669 -0.060990773 0.04907984
-0.016428458 -0.0029596945 -0.018120982 -0.034371722 -0.15883134 -0.062117465 0.102448836 -0.08950721
-0.28234985 -0.04611061 -0.033857662 -0.044261646 -0.11828165 -0.047150306 -0.029554369 -0.1693712
-0.047636893 -0.07269108 0.16460009 -0.025177855 0.021534111 0.029621948 0.104327865 0.11691556
0.03738911 -0.004943112 -0.004245503 0.101206504 0.070773125 0.06468008 0.119611755 0.1287058
-0.021941777 -0.07288269 0.06710579 0.0453411 -0.15831666 0.057452835 -0.0027510393 -0.0059420024
-0.10029854 -0.12756099 0.13573557 0.14380522 0.025188101 -0.013147925 -0.008824023 0.0814183
-0.006443066 0.08367996 0.053218056 0.07982781 -0.017317822 -0.10322416 0.12730768 0.08820512
0.015268593 -0.026367571 -0.11036604 0.07088165 -0.1517455 -0.123492144 0.216745 0.041976012
0.013334297 -0.02840072 -0.002178661 0.23218524 0.20035097 0.16265754 0.0020912406 0.007336327
-0.05179254 -0.18466364 -0.03767636 0.06408845 0.106582604 -0.0326049 -0.0037291057 0.20978014
0.16500609 0.0974871 0.038783465 0.20761012 0.15367442 -0.24688798 -0.049446955 0.23415251
0.2111715 0.1102326 0.001230215 0.14976263 0.29018822 0.25903797 0.12720144 0.2951255
0.10375241 -0.0024020795 0.043363973 0.12707677 0.09020176 0.21391797 0.15472049 0.08455114
0.1282345 0.112740755 -0.0053814924 -0.23286526 -0.043225832 0.0659784 0.054939203 -0.10741561
-0.14764665 -0.048147745 0.010932642 -0.07037219 0.046714474 0.15526147 0.00800537 -0.1811161
-0.107178725 0.10288654 0.06413826 -0.055316057 -0.008053355 -0.005693616 0.16233094 -0.026901802

layer2.0.bias f4 [32]
00000000: c8e4 963c 80ca 213d b925 c83a 09f4 2f3d
00000010: 97a0 c23c 93fa dabc 44d8 aabc 02f0 29bb
00000020: af40 b03c c999 eabb 8923 c0bc d245 b7ba
00000030: dc89 96bc f758 c3bc 136e 713d 8366 3b3d
00000040: 1c06 45bc 0ec6 41bd 0004 80bc c8bc 3a3d
00000050: 5cf4 39bd d842 19bb 5b60 553d 07b3 b23c
00000060: b6cd 48bd 86f7 01bc 50cd 023d 5134 6f3c
00000070: b163 603d 483c cc3c f6e8 033c ed60 f03b
0.018419638 0.03949976 0.0015270031 0.04295734 0.023758216 -0.026730811 -0.020855077 -0.002593041
0.021515219 -0.007159446 -0.023454444 -0.00139826 -0.018376283 -0.023846133 0.058942866 0.04575206
-0.012025382 -0.04730802 -0.015626907 0.045590192 -0.045399055 -0.002338579 0.052093845 0.021813883
-0.049024306 -0.007932549 0.031934083 0.014599876 0.054782573 0.024931088 0.008051148 0.007335773

layer2.1.weight f4 [32]
00000000: 3c0e 863f 54fc 303f 131a a43f c073 8f3f
00000010: 1408 4e3f 3ee1 083f dbff 483f b6be 833f
00000020: 7d4e 263f 3c2f a93f b577 6f3f e718 6f3f
00000030: 59bc 663f 9a79 3b3f d7b5 393f dac0 923f
00000040: 6166 613f bd7f a33f 4de2 523f a3dc 0c3f
00000050: 22da 193f feb8 173f aa8d 973f c362 2b3f
00000060: ead0 793f ccf1 343f e812 9d3f d4f2 203f
00000070: 52e0 7b3f 7327 853f aea8 683f f70f 8f3f
1.0473094 0.6913502 1.2820457 1.1207199 0.80481076 0.5346869 0.78515404 1.0292575
0.64963514 1.321754 0.93542033 0.9339737 0.90131146 0.73232424 0.7254309 1.1465104
0.8804684 1.2773358 0.8237656 0.55024165 0.6009847 0.5926665 1.1840107 0.66947573
0.975844 0.7068145 1.2271395 0.62870526 0.9838916 1.0402664 0.90882385 1.1176747

layer2.1.bias f4 [32]
00000000: f02b 08be 90b1 60be d7e1 6abe 43c8 93be
00000010: c8b0 0bbe 660f 36be 871b 8abe fdea e8be
00000020: f3e4 7fbe f2d1 d6be 6d93 8bbe c9e5 c8be
00000030: afd7 87be e5d9 76be 98ae 4ebe 4cc3 e4be
00000040: 88b5 8ebe b31a 97be ba9e 2bbe 29a6 f8bd
00000050: 9d89 a2bd 1b05 21be f8cc 9fbe f977 2abe
00000060: a48e b4be 05be 43be db3f c2be 22ca 4cbe
00000070: 2620 60be 5d2e a4be b10a 7bbe 1b58 bdbe
-0.13298011 -0.21942735 -0.22937714 -0.28863725 -0.13641655 -0.17779312 -0.26974127 -0.45491782
-0.24989681 -0.4195705 -0.27260914 -0.39237812 -0.2653174 -0.24106558 -0.2018379 -0.4468025
-0.27872872 -0.29512557 -0.16759768 -0.121410675 -0.07936404 -0.15724604 -0.31211066 -0.16647328
-0.35265076 -0.19115455 -0.37939343 -0.19998983 -0.21887264 -0.32066622 -0.24515797 -0.36981282

layer2.1.running_mean f4 [32]
00000000: 7b8c 693f bd84 bc3e f464 873c dfb7 84be
00000010: 6d24 93be 9bd1 84be 3978 84be 591f 88be
00000020: 0143 1b3d 66f7 6ebe 959c 7dbe 183d b83d
00000030: 8ccf c7be e200 9abe 7774 a2be 57e6 0cbf
00000040: 7f36 84be 5076 adbe 7227 1dbe 6823 9cbd
00000050: cfbf 323f 6608 79be 8040 b73c f6d8 03bd
00000060: b193 5bbe cf6d 5f3e fae5 d0bc 7534 183e
00000070: d168 4b3e 8d70 72be 5f5d 9dbe 58ff 10bd
0.9122998 0.3682002 0.01652763 -0.25921533 -0.28738728 -0.25941166 -0.25872973 -0.26586416
0.037905697 -0.23336563 -0.24766763 0.08996028 -0.39025533 -0.300788 -0.3172948 -0.5503897
-0.25822827 -0.33879328 -0.15347078 -0.07623941 0.69823927 -0.2431961 0.022369623 -0.032189332
-0.21443059 0.21819232 -0.025500286 0.14863761 0.19864203 -0.23675747 -0.307353 -0.035399765

layer2.1.running_var f4 [32]
00000000: b174 d23e 271d 093f a347 5f3f 5eb8 dd3e
00000010: ad95 1a3f e45a 6c3f fd55 e13e b274 083f
00000020: e73e f33e 566e 093f 34e7 133f b084 a43e
00000030: 937c 1e3f 4804 e53e 96f1 d43e abb6 d93e
00000040: 8dd0 e53e adb0 dd3e afb9 e73e ca99 c03e
00000050: 54aa 163f a393 a73e 0269 ec3e 5b4e 0a3f
00000060: 13a8 073f 793b f73e 5f21 1c3f 5011 bd3e
00000070: 605f 173f 675c 073f 72ac dc3e 4784 213f
0.41104653 0.5356011 0.87218684 0.43304724 0.6038464 0.9232619 0.44010916 0.5330306
0.47508928 0.53683984 0.5777466 0.32132483 0.61908835 0.4472983 0.41590565 0.42522177
0.44885674 0.43298855 0.45258853 0.37617332 0.5885365 0.32729825 0.46173865 0.5402581
0.52990836 0.48287562 0.6098842 0.3692727 0.59129906 0.5287537 0.43100315 0.63092464

fc.weight f4 [10, 1568]
00000000: 7e5a 3ebc d9ae f3bc 31dd 2ebd 8d3e cfbc
00000010: 3a86 aebc 6e71 b2bd 9f4b 123e 097f ef3b
00000020: 090d 703c 9b45 8d3d a469 8bbc 921e da3c
00000030: 8929 e33c 1123 0e3e 6ab4 41bd 7bfa b6bd
00000040: cc69 02ba 1c06 bf3d 6d93 58bc dfeb 873d
00000050: 07a7 fb3d fe49 62bd 70d2 c1bd 2b77 693b
00000060: f4b7 acbd 4b6f 37be afb6 98bc 8a34 13be
00000070: 6de4 373d 895e 10be b4c8 2cbe 92c1 cdbe
00000080: 7422 9abd b9f5 f8bd 6cc2 2e3d 57b1 4e3d
00000090: f67b 3dbd 5d3d aabd 499e 6b3d 3bea b83d
000000a0: 399f bb3d 1b5d b73d 32a6 57bc 20e9 8bbd
000000b0: 54f5 93bd f976 063d b2aa 5bbd fd14 c9bc
000000c0: f994 783c db35 023e e0a4 b6bc b48e ad3d
000000d0: c0b7 503d 9382 6dbc 2372 e93c 88b3 593c
000000e0: 6d2e a5bc 1127 d4bd f9e5 05be bf43 b13d
000000f0: dc9b 8c3d b3bb abbd a0d0 1fbe 7c18 083d
00000100: 1b78 11be 4375 33be 8c7f 503d b53b 07be
00000110: 07fc 76be b35f 71be d663 f0bd ace0 dd3c
00000120: e735 49be a191 6fbe 0cf9 b6be 24b9 373c
00000130: eae5 87bd 991c a23d fa80 643d b9e8 e5bd
00000140: cd78 5bbd 3394 8d3e 37f6 2e3e e7f1 d83d
00000150: 9a28 0ebe 0a2b b83b 0f2f 16be 3d95 47be
00000160: 0094 6a3d 30f7 483c 956d 033d 1734 48bd
00000170: 5eb0 74bd c093 92be ec81 f0be f15c 82be
00000180: f69d f8bd afb4 31bd f063 053e 9384 e53c
00000190: 85a1 eebd fdb8 1dbd 0f3a 9ebd 1148 e9bd
000001a0: 498c 733d f507 013e f17a 07bd 78b2 91bd
000001b0: 11d0 3dbd 1280 41be 6114 18be e972 c43d
000001c0: 2064 973d b8eb 3e3d cff2 d43d 714b d23d
000001d0: 1aa9 d2bd b0b7 98bc f5da 953c 8acd a13d
000001e0: 0925 023e d04b fd3d 0698 163d ee57 24bd
000001f0: f092 743d d665 793d a2e4 a63d a127 80ba
00000200: 6e33 beba 99a4 54bd a6df 973d 3736 ad3d
00000210: cac2 08be aef3 703b c00e 94bd c2b7 4ebe
00000220: b565 aabd da08 ebbc bcf4 92bd 8e76 e5bd
00000230: 7e94 d73d aa72 033c 6726 55be d696 90be
00000240: 3032 95bc 0e36 d93c 6ccd 923c b7fd 523d
00000250: 01ac eebc 770d 80bd 8040 e1bd 1951 79bd
00000260: 3f1b e63d c157 ac3d 1510 323d 0472 bbbc
00000270: da8f b2bc 87bf 13bd dd29 c33d 9b1e 623e
00000280: 9efc a23d 3a56 9c3c 74ea 7f3d afc5 343e
00000290: c413 703e 7ec2 5f3e 293e 013e 88cf 943d
000002a0: 2059 a03d b063 4f3d 8173 2fbe 873f 4bbd
000002b0: 51e5 2ebc 1fc8 88bc 54c1 c03c b859 103d
000002c0: 4d85 b63d 5313 9ebd 942c 8ebd a495 5dbe
000002d0: 6c85 5abe 4cfc 103b c333 923c 9f1b 5b3e
000002e0: 6aea 693c c5c0 cd3d 4f6a 0a3c 7be6 f8bc
000002f0: b3d3 813c e3a5 a93d 0e5f f6ba 329a f43d
00000300: ddfa 803d c55f ac3d ec68 e3bb 1493 02bd
00000310: aeb9 e03d 12ad d7bb 5608 24bc 99e1 dc3b
00000320: a0e3 f7bd da62 083d 607c 093e 587f 913d
00000330: 4682 dbbd d0e3 f4bd df7c 443d 2e31 763d
00000340: e012 ed3c 506f 4a3e 7a53 f33d c7d3 703d
00000350: 22c5 3ebd 65cf 363e d1d7 013d 1545 82bd
00000360: 979d 7e3d 2492 863d 66f9 c9bd 548c 1d3e
00000370: bdd2 1d3e 788b b1bd 53bc b43d 9365 ac3d
00000380: 1537 223c a17c 613d d17f b63d b747 ea3c
00000390: ca5b 18bd d4be be3d 0e69 493e f5de b43c
000003a0: f6e9 0d3e 538b ed3d 6efb ab3c 5697 cebc
000003b0: 9ee8 b23b dc58 103d ebe6 1e3e c2c7 313e
000003c0: d6a3 46be 99c4 d1be 3d08 34bd 7e3c 70bd
000003d0: cc9d f53c f4d6 e1bd 2424 62be a495 2abe
000003e0: 5e3c 02bd ff4b 81bb 00fa 51bc ec6a 68bd
000003f0: 6f5d 253d bdbf e43d 035a 44bd ce7f 7bbd
-0.011618255 -0.02974646 -0.042691413 -0.025298381 -0.021304239 -0.08713041 0.1428666 0.007308845
0.014651545 0.06898042 -0.017018147 0.026625905 0.027729766 0.13880564 -0.047291197 -0.08934494
-0.00049748714 0.09327337 -0.013218743 0.06636786 0.12287717 -0.055246346 -0.09463966 0.0035624008
-0.08433524 -0.17913549 -0.018641798 -0.14375511 0.04489558 -0.14098562 -0.16873437 -0.40186745
-0.07526103 -0.12156243 0.042665884 0.050462093 -0.046260796 -0.08312485 0.057524 0.09029051
0.09161229 0.08953305 -0.013162183 -0.068315744 -0.07224527 0.032828305 -0.053629585 -0.02454614
0.015172237 0.12715857 -0.022295415 0.08474484 0.050956488 -0.014496463 0.028496807 0.0132874325
-0.02016374 -0.10359014 -0.13076009 0.086555 0.06865665 -0.0838541 -0.15606928 0.033226475
-0.14205973 -0.175252 0.05090289 -0.1320637 -0.24119578 -0.23571663 -0.11737792 0.027084671
-0.19649468 -0.23395397 -0.35736883 0.011213575 -0.066356495 0.07915611 0.055787064 -0.11226029
-0.053582 0.2765213 0.17086111 0.10593014 -0.13882676 0.005620365 -0.14666389 -0.19490524
0.05727005 0.012265965 0.032086927 -0.0488778 -0.05973851 -0.2862835 -0.46974123 -0.25461534
-0.12139504 -0.043385204 0.13026404 0.028017318 -0.11651901 -0.038506497 -0.077259175 -0.11390699
0.05945996 0.12600692 -0.03307623 -0.07114118 -0.046341006 -0.18896511 -0.14851524 0.0959223
0.07392144 0.046611518 0.103978746 0.102682956 -0.1028616 -0.018642277 0.018292883 0.079005316
0.1270944 0.12367976 0.036766075 -0.04012292 0.059710443 0.060888134 0.08149077 -0.0009777435
-0.0014511177 -0.051914785 0.074157044 0.08457606 -0.13355556 0.0036766338 -0.07229376 -0.20187286
-0.0832018 -0.028690744 -0.07175586 -0.11204253 0.105263695 0.0080229435 -0.2081543 -0.2824008
-0.018212408 0.026515033 0.017920218 0.051511493 -0.029134752 -0.06252568 -0.109986305 -0.060868356
0.112356655 0.08415175 0.04347237 -0.022881515 -0.02179711 -0.036071327 0.09529469 0.22081988
0.07958339 0.019084085 0.06247945 0.17653535 0.2344504 0.21851537 0.12621368 0.07266146
0.07829499 0.05063218 -0.17133905 -0.04962113 -0.0106747905 -0.016696988 0.023529686 0.035241812
0.08912144 -0.077185296 -0.06942096 -0.21639115 -0.21339959 0.0022123037 0.017846948 0.21397255
0.01427708 0.100465335 0.0084481975 -0.03038334 0.015848016 0.082835935 -0.0018796639 0.11943473
0.062978484 0.08416704 -0.006939998 -0.031878546 0.109729156 -0.006581911 -0.010011753 0.0067407605
-0.12103963 0.033297397 0.13426352 0.07104367 -0.10718207 -0.11957514 0.04797065 0.060105495
0.028939664 0.19769025 0.11881156 0.058795717 -0.04657472 0.17852552 0.03169996 -0.063608326
0.062162008 0.06570843 -0.09862022 0.15385562 0.15412422 -0.0866918 0.088249825 0.08417811
0.009900828 0.055050496 0.08911098 0.02859865 -0.037196912 0.09313741 0.19668981 0.02207897
0.1385878 0.115988396 0.020993914 -0.025218647 0.005459859 0.035240993 0.15517776 0.17361358
-0.19398436 -0.40970305 -0.04395317 -0.05865144 0.02998247 -0.11027327 -0.22084099 -0.16658646
-0.031795852 -0.003945827 -0.012815952 -0.056742594 0.04037231 0.11169384 -0.047937404 -0.06140118

fc.bias f4 [10]
00000000: 0bf4 1d3d 82da f73d 5c14 173d dd4f 31bd
00000010: b8c3 95bd ab36 9abc 2ddb cebc 3d67 9abc
00000020: 2540 14bd 205b 51bb
0.038562816 0.12102224 0.03688465 -0.043289054 -0.07312721 -0.018824896 -0.025250996 -0.018848056
-0.036193985 -0.0031945184
